####################################
Training Start Date: 2020-02-26
Training Start Time: 13-51-27
Batch Size: 2
Epoch: 10
Feature files used: normal,breach,poodle,rc4,dos
Existing model used: None
Split Ratio: 0.2
Seed: 2019
####################################

Model: "sequential"

_________________________________________________________________

Layer (type)                 Output Shape              Param #   

=================================================================

conv2d (Conv2D)              (None, 250, 35, 32)       1056      

_________________________________________________________________

conv2d_1 (Conv2D)            (None, 62, 7, 64)         65600     

_________________________________________________________________

reshape (Reshape)            (None, 434, 64)           0         

_________________________________________________________________

cu_dnnlstm (CuDNNLSTM)       (None, 100)               66400     

_________________________________________________________________

activation (Activation)      (None, 100)               0         

_________________________________________________________________

dense (Dense)                (None, 5)                 505       

=================================================================

Total params: 133,561

Trainable params: 133,561

Non-trainable params: 0

_________________________________________________________________

#####  TRAIN/VAL LOSS  #####
Epoch  #1	Train Loss: 0.541184	Val Loss: 0.031981
Epoch  #2	Train Loss: 0.082789	Val Loss: 0.004820
Epoch  #3	Train Loss: 0.008855	Val Loss: 0.000238
Epoch  #4	Train Loss: 0.005116	Val Loss: 0.000251
…
